data.pth (torch, 5311 bytes, 6 tensors)

l1.weight f4 [8, 57]
-0.37532264 0.10540601 -0.5657238 0.7502452 0.99243665 0.4279337 0.13979207 0.515589
0.026368123 1.2461576 0.05135147 0.29499006 0.3294647 0.300177 -0.17929012 1.4460746
-0.77603287 -0.7641446 -0.034040425 0.14515844 -0.7641893 -0.7641475 0.009061168 -0.3002647
-0.764111 0.45298702 -0.0191476 0.40798232 0.64939386 0.78100467 0.14348844 -0.07678415
0.3799349 -0.1506329 -0.7643787 -0.07082013 -0.07400331 0.11278864 0.74616563 0.7696909
0.9775991 1.0455136 0.23098406 -0.7640058 -0.35476685 0.12099208 -0.20452058 0.6049257
0.13772517 -0.045519345 0.34127605 0.08281925 1.0851656 1.1075265 0.14574508 0.29153132
0.114507996 -0.053774215 -0.13250446 0.6497786 -0.06598548 0.79349893 0.6711905 0.08000235
-0.07615536 0.9246865 -0.10627447 0.010773793 -0.1056765 0.575378 -0.17385507 0.63665545
-0.25237826 0.5544265 0.58917844 -0.3551775 -0.022244386 0.5693608 0.76945674 -0.012870245
-0.029383043 -0.12727292 0.75820136 -0.057230987 0.79638666 0.5441462 0.050544046 0.5662086
-0.08144173 0.4281335 -0.2986137 -0.24899691 0.8510924 0.021041095 0.012175545 -0.12826417
-0.37272823 -0.19726507 -0.19507158 0.55480945 -9.1305235e-05 0.030182138 0.25165775 0.11989484
0.71436006 0.029333154 -0.3167816 0.48825145 -0.07682237 -0.32127994 0.09488427 0.08999496
0.3842078 -0.20509556 0.74128336 0.04338641 0.32744288 0.36150202 -0.9013052 0.07989655
0.11438443 -0.51022923 0.33268145 -0.7185648 0.037098188 0.30430213 0.58755445 -0.05186844
0.30722293 -0.90531874 0.59973514 -0.60496354 0.47684026 0.04229273 -0.7830002 -0.68503237
0.2784641 0.8644236 -0.90113145 0.009902103 0.17221649 0.30571088 -0.2794667 -0.66071236
0.28563878 0.037549246 0.003235716 0.0003871578 1.51093 0.14854412 0.22739564 0.12287289
-0.6723179 -0.5168819 -0.8417513 -0.81873584 0.25708625 1.4156926 0.8870677 0.12305011
-0.15765415 -0.07257087 0.629269 0.11072586 0.07204565 0.28409374 -0.90111536 -0.87073153
0.3118045 0.29672232 0.43197286 0.34191447 0.6953251 -0.32811093 -0.053456184 0.38127023
0.48178235 0.32444403 -0.9200583 0.54691976 -0.08962658 0.3535864 0.046118032 0.27995086
0.24400933 0.5277457 0.15835054 -0.18732733 -0.9098795 0.77429765 0.25277945 -0.86867183
-0.87876046 0.21150464 0.46299526 -1.0939691 0.53256327 0.3839698 0.48677167 0.2639552
0.23896423 0.4605179 0.3533812 0.4082889 0.258128 0.16194394 0.6767257 0.39432332
0.35180366 0.20706813 0.20864503 0.39830914 0.49616688 0.16031398 1.0088314 0.23466834
0.2132188 -0.32456306 0.5798183 0.8237065 0.55289495 0.3155785 0.21056679 0.44244966
0.27353075 0.39547858 -0.099560164 -0.033067103 -0.030756835 0.104803406 0.7631689 1.1211256
-0.19084498 0.68642277 -0.029726334 -0.15667084 0.9247752 -0.25717184 -0.039693475 -0.14436032
0.21696174 -0.2234732 0.55877674 0.79936624 0.6763723 1.0465338 -0.28296962 -0.061317362
1.0296338 1.0604471 0.014995182 -0.13233688 0.8798024 0.67242914 -0.24895224 1.0230031
00000000: 4a2a c0be 1bdf d73d 46d3 10bf 1210 403f
00000010: 5410 7e3f 201a db3e a725 0f3e a4fd 033f
00000020: f601 d83c 1882 9f3f eb55 523d f008 973e
00000030: 99af a83e cdb0 993e d497 37be f918 b93f
00000040: 17aa 46bf fb9e 43bf f96d 0bbd 6aa4 143e
00000050: e9a1 43bf 2c9f 43bf 4b75 143c 4bbc 99be
00000060: c79c 43bf eaed e73e 6ddb 9cbc 0fe3 d03e
00000070: ad3e 263f ecef 473f a2ee 123e 0241 9dbd
00000080: d486 c23e 833f 1abe 53ae 43bf 250a 91bd
00000090: 0c8f 97bd bbfd e63d b604 3f3f 760a 453f
000000a0: ef43 7a3f 64d3 853f 1687 6c3e e295 43bf
000000b0: 00a4 b5be b2ca f73d d86d 51be 69dc 1a3f
000000c0: d407 0d3e 7e72 3abd bcbb ae3e 249d a93d
000000d0: b5e6 8a3f 6ec3 8d3f 333e 153e 9843 953e
000000e0: 2b83 ea3d 5a42 5cbd 40af 07be e457 263f
000000f0: 6523 87bd bf22 4b3f 24d3 2b3f 46d8 a33d
00000100: 57f7 9bbd 41b8 6c3f 6ea6 d9bd 9084 303c
00000110: ec6c d8bd f94b 133f 1007 32be dafb 223f
00000120: b937 81be e5ee 0d3f 66d4 163f d3d9 b5be
00000130: dc39 b6bc a1c1 113f 1efb 443f b8dd 52bc
00000140: b5b4 f0bc d553 02be 7c19 423f 0a6b 6abd
00000150: ffdf 4b3f 2a4d 0b3f 4607 4f3d 0cf3 103f
00000160: ecca a6bd 5034 db3e e5e3 98be 0cf9 7ebe
00000170: 31e1 593f 605e ac3c f07b 473c af57 03be
00000180: 3cd6 bebe dbff 49be d8c0 47be fe07 0e3f
00000190: 207b bfb8 8840 f73c 49d9 803e 6d8b f53d
000001a0: 4de0 363f 154c f03c 3331 a2be 18fc f93e
000001b0: 0c55 9dbd ce7e a4be af52 c23d 474f b83d
000001c0: e2b6 c43e 9204 52be bfc4 3d3f f3b5 313d
000001d0: 98a6 a73e cb16 b93e f0bb 66bf cda0 a33d
000001e0: 6242 ea3d 629e 02bf 3955 aa3e ddf3 37bf
000001f0: 45f4 173d 7dcd 9b3e f869 163f 0074 54bd
00000200: 534c 9d3e f8c2 67bf 3e88 193f e4de 1abf
00000210: 6824 f43e 243b 2d3d b372 48bf 485e 2fbf
00000220: d992 8e3e dd4a 5d3f 8db0 66bf 6e3c 223c
00000230: 8559 303e 2386 9c3e 4216 8fbe 7224 29bf
00000240: 3f3f 923e 3dcd 193d 4e0e 543b 71fb ca39
00000250: 2766 c13f f31b 183e 67da 683e c8a4 fb3d
00000260: 071d 2cbf 5f52 04bf 037d 57bf ac98 51bf
00000270: cfa0 833e 6a35 b53f de16 633f b201 fc3d
00000280: 1770 21be 09a0 94bd c617 213f 3dc4 e23d
00000290: ab8c 933d bc74 913e 7faf 66bf 43e8 5ebf
000002a0: d7a4 9f3e fdeb 973e 8c2b dd3e 6a0f af3e
000002b0: d300 323f 28fe a7be dff4 5abd da35 c33e
000002c0: 2dac f63e 871d a63e f188 6bbf ef02 0c3f
000002d0: 248e b7bd 4709 b53e 43e6 3c3d b855 8f3e
000002e0: 95dd 793e 581a 073f a526 223e bcd2 3fbe
000002f0: dded 68bf 5f38 463f 4f6c 813e 4761 5ebf
00000300: 72f6 60bf ac94 583e b70d ed3e 2e07 8cbf
00000310: 1156 083f b197 c43e 233a f93e 2325 873e
00000320: 0ab3 743e 01c9 eb3e 61ee b43e 3e0b d13e
00000330: 5a29 843e a2d4 253e e53d 2d3f bfe4 c93e
00000340: 9c1f b43e ab09 543e 0ba7 553e 2def cb3e
00000350: 9609 fe3e 5929 243e 6321 813f e64c 703e
00000360: 0756 5a3e 212d a6be f96e 143f 6ede 523f
00000370: 868a 0d3f 8193 a13e d29e 573e c388 e23e
00000380: 390c 8c3e 2b7c ca3e 33e6 cbbd 5f71 07bd
00000390: c2f5 fbbc 2ba3 d63d 095f 433f 0b81 8f3f
000003a0: de6c 43be 67b9 2f3f a484 f3bc 526e 20be
000003b0: 11be 6c3f 07ac 83be a095 22bd 31d3 13be
000003c0: 382b 5e3e 29d6 64be fe0b 0f3f 44a3 4c3f
000003d0: bc26 2d3f d2f4 853f 65e1 90be ea27 7bbd
000003e0: 0acb 833f bbbc 873f 5aae 753c 5283 07be
000003f0: bb3a 613f 5124 2c3f 56ed 7ebe c4f1 823f

l1.bias f4 [8]
0.7640716 -0.00012595934 0.9012159 1.2837532 4.4373784e-05 1.446921 0.28188288 0.62534446
00000000: 329a 433f f413 04b9 16b6 663f 0652 a43f
00000010: fd1d 3a38 b534 b93f f452 903e 9316 203f

l2.weight f4 [8, 8]
1.2540542 -0.95040876 0.078254186 1.5120703 -1.2025033 0.17651787 -1.4826097 0.29288286
-1.1562005 1.3458899 -0.016591704 0.18695478 1.8504521 0.9703329 -0.12165084 2.119472
-0.4463818 -0.85283405 0.6878993 0.9750217 -0.71362555 0.73567086 -1.5165349 0.045409802
1.793748 0.022805274 -1.063156 0.8438514 -0.19385578 1.8163584 1.564101 -0.5215474
-1.1083454 -1.1276774 0.45413393 0.008515437 -0.36635923 1.2762493 0.017361581 1.6104764
-0.27968118 1.161999 1.469336 1.4608411 1.0189081 -1.9262432 1.035341 1.9356529
-1.0309376 -1.3676488 1.6930254 0.61637026 -0.49399033 1.175031 0.9765329 -0.8583896
-0.11592162 -0.2679453 -0.28877866 -0.2570028 -0.15500456 -0.090248585 -0.12758213 -0.074822664
00000000: d984 a03f fd4d 73bf bb43 a03d 858b c13f
00000010: a1eb 99bf 1ac1 343e 28c6 bdbf bef4 953e
00000020: 61fe 93bf 1f46 ac3f 53eb 87bc 1371 3f3e
00000030: 9ddb ec3f bd67 783f 1324 f9bd 6ea5 0740
00000040: 288c e4be 5553 5abf 2b1a 303f 069b 793f
00000050: 2ab0 36bf ed54 3c3f d11d c2bf a1ff 393d
00000060: 8999 e53f 20d2 ba3c 7f15 88bf a506 583f
00000070: 2182 46be 6f7e e83f 7634 c83f 2184 05bf
00000080: 43de 8dbf bc57 90bf 3e84 e83e 5584 0b3c
00000090: 7093 bbbe 235c a33f e039 8e3c 1724 ce3f
000000a0: 5f32 8fbe 62bc 943f 3413 bc3f d7fc ba3f
000000b0: 956b 823f 238f f6bf 0e86 843f 79c3 f73f
000000c0: c3f5 83bf 1e0f afbf 0eb5 d83f 71ca 1d3f
000000d0: 4dec fcbe 6a67 963f 0ffe 793f 6cbf 5bbf
000000e0: 5068 edbd 2030 89be ccda 93be df95 83be
000000f0: 84b9 1ebe 40d4 b8bd e4a4 02be a03c 99bd

l2.bias f4 [8]
0.93685645 0.57116103 0.42315304 0.8098453 0.6504268 0.14559789 0.26891145 -0.095574796
00000000: d3d5 6f3f 9c37 123f 84a7 d83e 0652 4f3f
00000010: 5f82 263f 9d17 153e c3ae 893e b8bc c3bd

l3.weight f4 [10, 8]
0.5255013 0.19415002 0.6387365 -1.4541216 0.27349368 0.38846925 -2.3599257 0.14657488
-1.4183646 -0.55199724 -1.5872281 0.5791215 0.31062686 -1.6729702 1.1442256 0.34871712
-0.7331815 0.67972624 -1.4097905 -1.7587916 -0.52627367 0.598486 -1.1011355 0.29594436
0.0474034 -0.09612501 -1.438405 0.67813617 0.11801624 -0.3349505 -1.1750697 0.27320454
-1.6885952 1.1090434 -0.92518437 0.015435175 0.89353395 -1.179922 -0.9416023 -0.04647073
-1.3801349 0.41028175 -1.0382417 0.100961156 -1.7875274 0.43920475 -1.2978183 -0.047246695
0.34672228 -0.15488364 0.84901875 -0.11619458 0.40435353 -1.2171606 0.8362502 -0.24902174
-0.7557403 -1.1897042 -1.449352 0.12601782 -1.0266899 0.57841337 0.8529224 0.35112187
0.15489843 -0.12792471 0.2755721 -1.9041315 0.30692378 0.1723242 0.86399794 0.03481862
1.0920775 -1.5740235 0.34708107 0.91429055 -1.3375188 -2.0779397 -1.1917642 0.12250689
00000000: 4187 063f 43cf 463e 3c84 233f a820 babf
00000010: 5d07 8c3e 71e5 c63e 0609 17c0 ba17 163e
00000020: f98c b5bf b14f 0dbf 4a2a cbbf 4e41 143f
00000030: 7c0a 9f3e e323 d6bf fc75 923f 0d8b b23e
00000040: c8b1 3bbf 8a02 2e3f 0474 b4bf 1520 e1bf
00000050: dfb9 06bf 6136 193f 02f2 8cbf 0586 973e
00000060: 112a 423d 30dd c4bd a81d b8bf 559a 2d3f
00000070: 80b2 f13d a27e abbe af68 96bf 77e1 8b3e
00000080: e323 d8bf 22f5 8d3f e2d8 6cbf d1e3 7c3c
00000090: a4be 643f af07 97bf d90c 71bf 1858 3ebd
000000a0: 43a8 b0bf 7310 d23e 1be5 84bf b9c4 ce3d
000000b0: b3cd e4bf 72df e03e e91e a6bf c085 41bd
000000c0: 9585 b13e d199 1ebe 4b59 593f 6df7 edbd
000000d0: 6d07 cf3e ebcb 9bbf 7e14 563f 8eff 7ebe
000000e0: 3278 41bf 3a48 98bf 5e84 b9bf d10a 013e
000000f0: 936a 83bf e612 143f 1f59 5a3f 3fc6 b33e
00000100: b29d 1e3e b2fe 02be c917 8d3e 95ba f3bf
00000110: 1d25 9d3e c175 303e f82e 5d3f f89d 0e3d
00000120: 32c9 8b3f 9a79 c9bf 9cb4 b13e f20e 6a3f
00000130: d133 abbf f7fc 04c0 bb8b 98bf e4e4 fa3d

l3.bias f4 [10]
-0.4760456 0.24844913 -0.22785634 0.4290001 0.2867101 0.053008083 -0.14971559 0.011502971
-0.067072116 0.3604252
00000000: 40bc f3be 7369 7e3e 2c53 69be e7a5 db3e
00000010: abcb 923e 011f 593d 0b4f 19be f576 3c3c
00000020: 1b5d 89bd a789 b83e
